…
{"image/png":"…\n","text/plain":["<Figure size 432x288 with 1 Axes>"]},"metadata":{"tags":[]}},{"output_type":"display_data","data":{"image/png":"…\n","text/plain":["<Figure size 432x288 with 1 Axes>"]},"metadata":{"tags":[]}},{"output_type":"stream","text":["\n","\n"," ************* Model Information *************\n","\n","Model: \"InceptionV3-Covid19\"\n","_________________________________________________________________\n","Layer (type)                 Output Shape              Param #   \n","=================================================================\n","inception_v3 (Model)         (None, 8, 8, 2048)        21802784  \n","_________________________________________________________________\n","global_average_pooling2d_10  (None, 2048)              0         \n","_________________________________________________________________\n","dense_16 (Dense)             (None, 1024)              2098176   \n","_________________________________________________________________\n","dropout_2 (Dropout)          (None, 1024)              0         \n","_________________________________________________________________\n","dense_17 (Dense)             (None, 2)                 2050      \n","=================================================================\n","Total params: 23,903,010\n","Trainable params: 2,100,226\n","Non-trainable params: 21,802,784\n","_________________________________________________________________\n","Training Dataset Size: 400\n","Validation Dataset Size: 52\n","Test Dataset Size: 50\n","Batch size: 32\n","Epochs: 10\n","Input Image Size: (None, 299
…
ue,\n","    weights=\"imagenet\"\n",")\n","\n","test_model.summary()\n","\n","for i, layer in enumerate(test_model.layers):\n","    print(f\"{i}: {layer.name}\")\n"],"execution_count":0,"outputs":[{"output_type":"stream","text":["Model: \"inception_v3\"\n","__________________________________________________________________________________________________\n","Layer (type)                    Output Shape         Param #     Connected to                     \n","==================================================================================================\n","input_33 (InputLayer)           [(None, 299, 299, 3) 0                                            \n","__________________________________________________________________________________________________\n","conv2d_3008 (Conv2D)            (None, 149, 149, 32) 864         input_33[0][0]                   \n","__________________________________________________________________________________________________\n","batch_normalization_3008 (Batch (None, 149, 149, 32) 96          conv2d_3008[0][0]                \n","__________________________________________________________________________________________________\n","activation_3008 (Activation)    (None, 149, 149, 32) 0           batch_normalization_3008[0][0]   \n","__________________________________________________________________________________________________\n","conv2d_3009 (Conv2D)            (None, 147, 147, 32) 9216        activation_3008[0][0]            \n","__________________________________________________________________________________________________\n","batch_normalization_3009 (Batch (None, 147, 147, 32) 96          conv2d_3009[0][0]                \n","__________________________________________________________________________________________________\n","activation_3009 (Activation)    (None, 147, 147, 32) 0           batch_normalization_3009[0][0]   \n","__________________________________________________________________________________________________\n","conv2d_3010 (Conv2D)            (None, 147, 147, 64) 18432       activation_3009[0][0]            \n","__________________________________________________________________________________________________\n","batch_normalization_3010 (Batch (None, 147, 147, 64) 192         conv2d_3010[0][0]                \n","__________________________________________________________________________________________________\n","activation_3010 (Activation)    (None, 147, 147, 64) 0           batch_normalization_3010[0][0]   \n","__________________________________________________________________________________________________\n","max_pooling2d_128 (MaxPooling2D (None, 73, 73, 64)   0           activation_3010[0][0]            \n","__________________________________________________________________________________________________\n","conv2d_3011 (Conv2D)            (None, 73, 73, 80)   5120        max_pooling2d_128[0][0]          \n","__________________________________________________________________________________________________\n","batch_normalization_3011 (Batch (None, 73, 73, 80)   240         conv2d_3011[0][0]                \n","__________________________________________________________________________________________________\n","activation_3011 (Activation)    (None, 73, 73, 80)   0           batch_normalization_3011[0][0]   \n","__________________________________________________________________________________________________\n","conv2d_3012 (Conv2D)            (None, 71, 71, 192)  138240      activation_3011[0][0]            \n","__________________________________________________________________________________________________\n","batch_normalization_3012 (Batch (None, 71, 71, 192)  576         conv2d_3012[0][0]                \n","__________________________________________________________________________________________________\n","activation_3012 (Activation)    (None, 71, 71, 192)  0           batch_normalization_3012[0][0]   \n","__________________________________________________________________________________________________\n","max_pooling2d_129 (MaxPooling2D (None, 35, 35, 192)  0           activation_3012[0][0]            \n","__________________________________________________________________________________________________\n","conv2d_3016 (Conv2D)            (None, 35, 35, 64)   12288       max_pooling2d_129[0][0]          \n","__________________________________________________________________________________________________\n","batch_normalization_3016 (Batch (None, 35, 35, 64)   192         conv2d_3016[0][0]                \n","__________________________________________________________________________________________________\n","activation_3016 (Activation)    (None, 35, 35, 64)   0           batch_normalization_3016[0][0]   \n","__________________________________________________________________________________________________\n","conv2d_3014 (Conv2D)            (None, 35, 35, 48)   9216        max_pooling2d_129[0][0]          \n","__________________________________________________________________________________________________\n","conv2d_3017 (Conv2D)            (None, 35, 35, 96)   55296       activation_3016[0][0]            \n","__________________________________________________________________________________________________\n","batch_normalization_3014 (Batch (None, 35, 35, 48)   144         conv2d_3014[0][0]                \n","__________________________________________________________________________________________________\n","batch_normalization_3017 (Batch (None, 35, 35, 96)   288         conv2d_3017[0][0]                \n","__________________________________________________________________________________________________\n","activation_3014 (Activation)    (None, 35, 35, 48)   0           batch_normalization_3014[0][0]   \n","__________________________________________________________________________________________________\n","activation_3017 (Activation)    (None, 35, 35, 96)   0           batch_normalization_3017[0][0]   \n","__________________________________________________________________________________________________\n","average_pooling2d_288 (AverageP (None, 35, 35, 192)  0           max_pooling2d_129[0][0]          \n","__________________________________________________________________________________________________\n","conv2d_3013 (Conv2D)            (None, 35, 35, 64)   12288       max_pooling2d_129[0][0]          \n","__________________________________________________________________________________________________\n","conv2d_3015 (Conv2D)            (None, 35, 35, 64)   76800       activation_3014[0][0]            \n","__________________________________________________________________________________________________\n","conv2d_3018 (Conv2D)            (None, 35, 35, 96)   82944       activation_3017[0][0]            \n","__________________________________________________________________________________________________\n","conv2d_3019 (Conv2D)            (None, 35, 35, 32)   6144        average_pooling2d_288[0][0]      \n","__________________________________________________________________________________________________\n","batch_normalization_3013 (Batch (None, 35, 35, 64)   192         conv2d_3013[0][0]                \n","__________________________________________________________________________________________________\n","batch_normalization_3015 (Batch (None, 35, 35, 64)   192         conv2d_3015[0][0]                \n","__________________________________________________________________________________________________\n","batch_normalization_3018 (Batch (None, 35, 35, 96)   288         conv2d_3018[0][0]                \n","__________________________________________________________________________________________________\n","batch_normalization_3019 (Batch (None, 35, 35, 32)   96          conv2d_3019[0][0]                \n","__________________________________________________________________________________________________\n","activation_3013 (Activation)    (None, 35, 35, 64)   0           batch_normalization_3013[0][0]   \n","__________________________________________________________________________________________________\n","activation_3015 (Activation)    (None, 35, 35, 64)   0           batch_normalization_3015[0][0]   \n","__________________________________________________________________________________________________\n","activation_3018 (Activation)    (None, 35, 35, 96)   0           batch_normalization_3018[0][0]   \n","__________________________________________________________________________________________________\n","activation_3019 (Activation)    (None, 35, 35, 32)   0           batch_normalization_3019[0][0]   \n","__________________________________________________________________________________________________\n","mixed0 (Concatenate)            (None, 35, 35, 256)  0           activation_3013[0][0]            \n","                                                                 activation_3015[0][0]            \n","                                                                 activation_3018[0][0]            \n","                                                                 activation_3019[0][0]            \n","__________________________________________________________________________________________________\n","conv2d_3023 (Conv2D)            (None, 35, 35, 64)   16384       mixed0[0][0]                     \n","__________________________________________________________________________________________________\n","batch_normalization_3023 (Batch (None, 35, 35, 64)   192         conv2d_3023[0][0]                \n","__________________________________________________________________________________________________\n","activation_3023 (Activation)    (None, 35, 35, 64)   0           batch_normalization_3023[0][0]   \n","__________________________________________________________________________________________________\n","conv2d_3021 (Conv2D)            (None, 35, 35, 48)   12288       mixed0[0][0]                     \n","__________________________________________________________________________________________________\n","conv2d_3024 (Conv2D)            (None, 35, 35, 96)   55296       activation_3023[0][0]            \n","__________________________________________________________________________________________________\n","batch_normalization_3021 (Batch (None, 35, 35, 48)   144         conv2d_3021[0][0]                \n","__________________________________________________________________________________________________\n","batch_normalization_3024 (Batch (None, 35, 35, 96)   288         conv2d_3024[0][0]                \n","__________________________________________________________________________________________________\n","activation_3021 (Activation)    (None, 35, 35, 48)   0           batch_normalization_3021[0][0]   \n","__________________________________________________________________________________________________\n","activation_3024 (Activation)    (None, 35, 35, 96)   0           batch_normalization_3024[0][0]   \n","__________________________________________________________________________________________________\n","average_pooling2d_289 (AverageP (None, 35, 35, 256)  0           mixed0[0][0]                     \n","__________________________________________________________________________________________________\n","conv2d_3020 (Conv2D)            (None, 35, 35, 64)   16384       mixed0[0][0]                     \n","__________________________________________________________________________________________________\n","conv2d_3022 (Conv2D)            (None, 35, 35, 64)   76800       activation_3021[0][0]            \n","__________________________________________________________________________________________________\n","conv2d_3025 (Conv2D)            (None, 35, 35, 96)   82944       activation_3024[0][0]            \n","__________________________________________________________________________________________________\n","conv2d_3026 (Conv2D)            (None, 35, 35, 64)   16384       average_pooling2d_289[0][0]      \n","__________________________________________________________________________________________________\n","batch_normalization_3020 (Batch (None, 35, 35, 64)   192         conv2d_3020[0][0]                \n","__________________________________________________________________________________________________\n","batch_normalization_3022 (Batch (None, 35, 35, 64)   192         conv2d_3022[0][0]                \n","__________________________________________________________________________________________________\n","batch_normalization_3025 (Batch (None, 35, 35, 96)   288         conv2d_3025[0][0]                \n","__________________________________________________________________________________________________\n","batch_normalization_3026 (Batch (None, 35, 35, 64)   192         conv2d_3026[0][0]                \n","__________________________________________________________________________________________________\n","activation_3020 (Activation)    (None, 35, 35, 64)   0           batch_normalization_3020[0][0]   \n","__________________________________________________________________________________________________\n","activation_3022 (Activation)    (None, 35, 35, 64)   0           batch_normalization_3022[0][0]   \n","__________________________________________________________________________________________________\n","activation_3025 (Activation)    (None, 35, 35, 96)   0           batch_normalization_3025[0][0]   \n","__________________________________________________________________________________________________\n","activation_3026 (Activation)    (None, 35, 35, 64)   0           batch_normalization_3026[0][0]   \n","__________________________________________________________________________________________________\n","mixed1 (Concatenate)            (None, 35, 35, 288)  0           activation_3020[0][0]            \n","                                                                 activation_3022[0][0]            \n","                                                                 activation_3025[0][0]            \n","                                                                 activation_3026[0][0]            \n","__________________________________________________________________________________________________\n","conv2d_3030 (Conv2D)            (None, 35, 35, 64)   18432       mixed1[0][0]                     \n","__________________________________________________________________________________________________\n","batch_normalization_3030 (Batch (None, 35, 35, 64)   192         conv2d_3030[0][0]                \n","__________________________________________________________________________________________________\n","activation_3030 (Activation)    (None, 35, 35, 64)   0           batch_normalization_3030[0][0]   \n","__________________________________________________________________________________________________\n","conv2d_3028 (Conv2D)            (None, 35, 35, 48)   13824       mixed1[0][0]                     \n","__________________________________________________________________________________________________\n","conv2d_3031 (Conv2D)            (None, 35, 35, 96)   55296       activation_3030[0][0]            \n","__________________________________________________________________________________________________\n","batch_normalization_3028 (Batch (None, 35, 35, 48)   144         conv2d_3028[0][0]                \n","__________________________________________________________________________________________________\n","batch_normalization_3031 (Batch (None, 35, 35, 96)   288         conv2d_3031[0][0]                \n","__________________________________________________________________________________________________\n","activation_3028 (Activation)    (None, 35, 35, 48)   0           batch_normalization_3028[0][0]   \n","__________________________________________________________________________________________________\n","activation_3031 (Activation)    (None, 35, 35, 96)   0           batch_normalization_3031[0][0]   \n","__________________________________________________________________________________________________\n","average_pooling2d_290 (AverageP (None, 35, 35, 288)  0           mixed1[0][0]                     \n","__________________________________________________________________________________________________\n","conv2d_3027 (Conv2D)            (None, 35, 35, 64)   18432       mixed1[0][0]                     \n","__________________________________________________________________________________________________\n","conv2d_3029 (Conv2D)            (None, 35, 35, 64)   76800       activation_3028[0][0]            \n","__________________________________________________________________________________________________\n","conv2d_3032 (Conv2D)            (None, 35, 35, 96)   82944       activation_3031[0][0]            \n","__________________________________________________________________________________________________\n","conv2d_3033 (Conv2D)            (None, 35, 35, 64)   18432       average_pooling2d_290[0][0]      \n","__________________________________________________________________________________________________\n","batch_normalization_3027 (Batch (None, 35, 35, 64)   192         conv2d_3027[0][0]                \n","__________________________________________________________________________________________________\n","batch_normalization_3029 (Batch (None, 35, 35, 64)   192         conv2d_3029[0][0]                \n","__________________________________________________________________________________________________\n","batch_normalization_3032 (Batch (None, 35, 35, 96)   288         conv2d_3032[0][0]                \n","__________________________________________________________________________________________________\n","batch_normalization_3033 (Batch (None, 35, 35, 64)   192         conv2d_3033[0][0]                \n","__________________________________________________________________________________________________\n","activation_3027 (Activation)    (None, 35, 35, 64)   0           batch_normalization_3027[0][0]   \n","__________________________________________________________________________________________________\n","activation_3029 (Activation)    (None, 35, 35, 64)   0           batch_normalization_3029[0][0]   \n","__________________________________________________________________________________________________\n","activation_3032 (Activation)    (None, 35, 35, 96)   0           batch_normalization_3032[0][0]   \n","__________________________________________________________________________________________________\n","activation_3033 (Activation)    (None, 35, 35, 64)   0           batch_normalization_3033[0][0]   \n","__________________________________________________________________________________________________\n","mixed2 (Concatenate)            (None, 35, 35, 288)  0           activation_3027[0][0]            \n","                                                                 activation_3029[0][0]            \n","                                                                 activation_3032[0][0]            \n","                                                                 activation_3033[0][0]            \n","__________________________________________________________________________________________________\n","conv2d_3035 (Conv2D)            (None, 35, 35, 64)   18432       mixed2[0][0]                     \n","__________________________________________________________________________________________________\n","batch_normalization_3035 (Batch (None, 35, 35, 64)   192         conv2d_3035[0][0]                \n","__________________________________________________________________________________________________\n","activation_3035 (Activation)    (None, 35, 35, 64)   0           batch_normalization_3035[0][0]   \n","__________________________________________________________________________________________________\n","conv2d_3036 (Conv2D)            (None, 35, 35, 96)   55296       activation_3035[0][0]            \n","__________________________________________________________________________________________________\n","batch_normalization_3036 (Batch (None, 35, 35, 96)   288         conv2d_3036[0][0]                \n","__________________________________________________________________________________________________\n","activation_3036 (Activation)    (None, 35, 35, 96)   0           batch_normalization_3036[0][0]   \n","__________________________________________________________________________________________________\n","conv2d_3034 (Conv2D)            (None, 17, 17, 384)  995328      mixed2[0][0]                     \n","__________________________________________________________________________________________________\n","conv2d_3037 (Conv2D)            (None, 17, 17, 96)   82944       activation_3036[0][0]            \n","__________________________________________________________________________________________________\n","batch_normalization_3034 (Batch (None, 17, 17, 384)  1152        conv2d_3034[0][0]                \n","__________________________________________________________________________________________________\n","batch_normalization_3037 (Batch (None, 17, 17, 96)   288         conv2d_3037[0][0]                \n","__________________________________________________________________________________________________\n","activation_3034 (Activation)    (None, 17, 17, 384)  0           batch_normalization_3034[0][0]   \n","__________________________________________________________________________________________________\n","activation_3037 (Activation)    (None, 17, 17, 96)   0           batch_normalization_3037[0][0]   \n","__________________________________________________________________________________________________\n","max_pooling2d_130 (MaxPooling2D (None, 17, 17, 288)  0           mixed2[0][0]                     \n","__________________________________________________________________________________________________\n","mixed3 (Concatenate)            (None, 17, 17, 768)  0           activation_3034[0][0]            \n","                                                                 activation_3037[0][0]            \n","                                                                 max_pooling2d_130[0][0]          \n","__________________________________________________________________________________________________\n","conv2d_3042 (Conv2D)            (None, 17, 17, 128)  98304       mixed3[0][0]                     \n","__________________________________________________________________________________________________\n","batch_normalization_3042 (Batch (None, 17, 17, 128)  384         conv2d_3042[0][0]                \n","__________________________________________________________________________________________________\n","activation_3042 (Activation)    (None, 17, 17, 128)  0           batch_normalization_3042[0][0]   \n","__________________________________________________________________________________________________\n","conv2d_3043 (Conv2D)            (None, 17, 17, 128)  114688      activation_3042[0][0]            \n","__________________________________________________________________________________________________\n","batch_normalization_3043 (Batch (None, 17, 17, 128)  384         conv2d_3043[0][0]                \n","__________________________________________________________________________________________________\n","activation_3043 (Activation)    (None, 17, 17, 128)  0           batch_normalization_3043[0][0]   \n","__________________________________________________________________________________________________\n","conv2d_3039 (Conv2D)            (None, 17, 17, 128)  98304       mixed3[0][0]                     \n","__________________________________________________________________________________________________\n","conv2d_3044 (Conv2D)            (None, 17, 17, 128)  114688      activation_3043[0][0]            \n","__________________________________________________________________________________________________\n","batch_normalization_3039 (Batch (None, 17, 17, 128)  384         conv2d_3039[0][0]                \n","__________________________________________________________________________________________________\n","batch_normalization_3044 (Batch (None, 17, 17, 128)  384         conv2d_3044[0][0]                \n","__________________________________________________________________________________________________\n","activation_3039 (Activation)    (None, 17, 17, 128)  0           batch_normalization_3039[0][0]   \n","__________________________________________________________________________________________________\n","activation_3044 (Activation)    (None, 17, 17, 128)  0           batch_normalization_3044[0][0]   \n","__________________________________________________________________________________________________\n","conv2d_3040 (Conv2D)            (None, 17, 17, 128)  114688      activation_3039[0][0]            \n","__________________________________________________________________________________________________\n","conv2d_3045 (Conv2D)            (None, 17, 17, 128)  114688      activation_3044[0][0]            \n","__________________________________________________________________________________________________\n","batch_normalization_3040 (Batch (None, 17, 17, 128)  384         conv2d_3040[0][0]                \n","__________________________________________________________________________________________________\n","batch_normalization_3045 (Batch (None, 17, 17, 128)  384         conv2d_3045[0][0]                \n","__________________________________________________________________________________________________\n","activation_3040 (Activation)    (None, 17, 17, 128)  0           batch_normalization_3040[0][0]   \n","__________________________________________________________________________________________________\n","activation_3045 (Activation)    (None, 17, 17, 128)  0           batch_normalization_3045[0][0]   \n","__________________________________________________________________________________________________\n","average_pooling2d_291 (AverageP (None, 17, 17, 768)  0           mixed3[0][0]                     \n","__________________________________________________________________________________________________\n","conv2d_3038 (Conv2D)            (None, 17, 17, 192)  147456      mixed3[0][0]                     \n","__________________________________________________________________________________________________\n","conv2d_3041 (Conv2D)            (None, 17, 17, 192)  172032      activation_3040[0][0]            \n","__________________________________________________________________________________________________\n","conv2d_3046 (Conv2D)            (None, 17, 17, 192)  172032      activation_3045[0][0]            \n","__________________________________________________________________________________________________\n","conv2d_3047 (Conv2D)            (None, 17, 17, 192)  147456      average_pooling2d_291[0][0]      \n","__________________________________________________________________________________________________\n","batch_normalization_3038 (Batch (None, 17, 17, 192)  576         conv2d_3038[0][0]                \n","__________________________________________________________________________________________________\n","batch_normalization_3041 (Batch (None, 17, 17, 192)  576         conv2d_3041[0][0]                \n","__________________________________________________________________________________________________\n","batch_normalization_3046 (Batch (None, 17, 17, 192)  576         conv2d_3046[0][0]                \n","__________________________________________________________________________________________________\n","batch_normalization_3047 (Batch (None, 17, 17, 192)  576         conv2d_3047[0][0]                \n","__________________________________________________________________________________________________\n","activation_3038 (Activation)    (None, 17, 17, 192)  0           batch_normalization_3038[0][0]   \n","__________________________________________________________________________________________________\n","activation_3041 (Activation)    (None, 17, 17, 192)  0           batch_normalization_3041[0][0]   \n","__________________________________________________________________________________________________\n","activation_3046 (Activation)    (None, 17, 17, 192)  0           batch_normalization_3046[0][0]   \n","__________________________________________________________________________________________________\n","activation_3047 (Activation)    (None, 17, 17, 192)  0           batch_normalization_3047[0][0]   \n","__________________________________________________________________________________________________\n","mixed4 (Concatenate)            (None, 17, 17, 768)  0           activation_3038[0][0]            \n","                                                                 activation_3041[0][0]            \n","                                                                 activation_3046[0][0]            \n","                                                                 activation_3047[0][0]            \n","__________________________________________________________________________________________________\n","conv2d_3052 (Conv2D)            (None, 17, 17, 160)  122880      mixed4[0][0]                     \n","__________________________________________________________________________________________________\n","batch_normalization_3052 (Batch (None, 17, 17, 160)  480         conv2d_3052[0][0]                \n","__________________________________________________________________________________________________\n","activation_3052 (Activation)    (None, 17, 17, 160)  0           batch_normalization_3052[0][0]   \n","__________________________________________________________________________________________________\n","conv2d_3053 (Conv2D)            (None, 17, 17, 160)  179200      activation_3052[0][0]            \n","__________________________________________________________________________________________________\n","batch_normalization_3053 (Batch (None, 17, 17, 160)  480         conv2d_3053[0][0]                \n","__________________________________________________________________________________________________\n","activation_3053 (Activation)    (None, 17, 17, 160)  0           batch_normalization_3053[0][0]   \n","__________________________________________________________________________________________________\n","conv2d_3049 (Conv2D)            (None, 17, 17, 160)  122880      mixed4[0][0]                     \n","__________________________________________________________________________________________________\n","conv2d_3054 (Conv2D)            (None, 17, 17, 160)  179200      activation_3053[0][0]            \n","__________________________________________________________________________________________________\n","batch_normalization_3049 (Batch (None, 17, 17, 160)  480         conv2d_3049[0][0]                \n","__________________________________________________________________________________________________\n","batch_normalization_3054 (Batch (None, 17, 17, 160)  480         conv2d_3054[0][0]                \n","__________________________________________________________________________________________________\n","activation_3049 (Activation)    (None, 17, 17, 160)  0           batch_normalization_3049[0][0]   \n","__________________________________________________________________________________________________\n","activation_3054 (Activation)    (None, 17, 17, 160)  0           batch_normalization_3054[0][0]   \n","__________________________________________________________________________________________________\n","conv2d_3050 (Conv2D)            (None, 17, 17, 160)  179200      activation_3049[0][0]            \n","__________________________________________________________________________________________________\n","conv2d_3055 (Conv2D)            (None, 17, 17, 160)  179200      activation_3054[0][0]            \n","__________________________________________________________________________________________________\n","batch_normalization_3050 (Batch (None, 17, 17, 160)  480         conv2d_3050[0][0]                \n","__________________________________________________________________________________________________\n","batch_normalization_3055 (Batch (None, 17, 17, 160)  480         conv2d_3055[0][0]                \n","__________________________________________________________________________________________________\n","activation_3050 (Activation)    (None, 17, 17, 160)  0           batch_normalization_3050[0][0]   \n","__________________________________________________________________________________________________\n","activation_3055 (Activation)    (None, 17, 17, 160)  0           batch_normalization_3055[0][0]   \n","__________________________________________________________________________________________________\n","average_pooling2d_292 (AverageP (None, 17, 17, 768)  0           mixed4[0][0]                     \n","__________________________________________________________________________________________________\n","conv2d_3048 (Conv2D)            (None, 17, 17, 192)  147456      mixed4[0][0]                     \n","__________________________________________________________________________________________________\n","conv2d_3051 (Conv2D)            (None, 17, 17, 192)  215040      activation_3050[0][0]            \n","__________________________________________________________________________________________________\n","conv2d_3056 (Conv2D)            (None, 17, 17, 192)  215040      activation_3055[0][0]            \n","__________________________________________________________________________________________________\n","conv2d_3057 (Conv2D)            (None, 17, 17, 192)  147456      average_pooling2d_292[0][0]      \n","__________________________________________________________________________________________________\n","batch_normalization_3048 (Batch (None, 17, 17, 192)  576         conv2d_3048[0][0]                \n","__________________________________________________________________________________________________\n","batch_normalization_3051 (Batch (None, 17, 17, 192)  576         conv2d_3051[0][0]                \n","__________________________________________________________________________________________________\n","batch_normalization_3056 (Batch (None, 17, 17, 192)  576         conv2d_3056[0][0]                \n","__________________________________________________________________________________________________\n","batch_normalization_3057 (Batch (None, 17, 17, 192)  576         conv2d_3057[0][0]                \n","__________________________________________________________________________________________________\n","activation_3048 (Activation)    (None, 17, 17, 192)  0           batch_normalization_3048[0][0]   \n","__________________________________________________________________________________________________\n","activation_3051 (Activation)    (None, 17, 17, 192)  0           batch_normalization_3051[0][0]   \n","__________________________________________________________________________________________________\n","activation_3056 (Activation)    (None, 17, 17, 192)  0           batch_normalization_3056[0][0]   \n","__________________________________________________________________________________________________\n","activation_3057 (Activation)    (None, 17, 17, 192)  0           batch_normalization_3057[0][0]   \n","__________________________________________________________________________________________________\n","mixed5 (Concatenate)            (None, 17, 17, 768)  0           activation_3048[0][0]            \n","                                                                 activation_3051[0][0]            \n","                                                                 activation_3056[0][0]            \n","                                                                 activation_3057[0][0]            \n","__________________________________________________________________________________________________\n","conv2d_3062 (Conv2D)            (None, 17, 17, 160)  122880      mixed5[0][0]                     \n","__________________________________________________________________________________________________\n","batch_normalization_3062 (Batch (None, 17, 17, 160)  480         conv2d_3062[0][0]                \n","__________________________________________________________________________________________________\n","activation_3062 (Activation)    (None, 17, 17, 160)  0           batch_normalization_3062[0][0]   \n","__________________________________________________________________________________________________\n","conv2d_3063 (Conv2D)            (None, 17, 17, 160)  179200      activation_3062[0][0]            \n","__________________________________________________________________________________________________\n","batch_normalization_3063 (Batch (None, 17, 17, 160)  480         conv2d_3063[0][0]                \n","__________________________________________________________________________________________________\n","activation_3063 (Activation)    (None, 17, 17, 160)  0           batch_normalization_3063[0][0]   \n","__________________________________________________________________________________________________\n","conv2d_3059 (Conv2D)            (None, 17, 17, 160)  122880      mixed5[0][0]                     \n","__________________________________________________________________________________________________\n","conv2d_3064 (Conv2D)            (None, 17, 17, 160)  179200      activation_3063[0][0]            \n","__________________________________________________________________________________________________\n","batch_normalization_3059 (Batch (None, 17, 17, 160)  480         conv2d_3059[0][0]                \n","__________________________________________________________________________________________________\n","batch_normalization_3064 (Batch (None, 17, 17, 160)  480         conv2d_3064[0][0]                \n","__________________________________________________________________________________________________\n","activation_3059 (Activation)    (None, 17, 17, 160)  0           batch_normalization_3059[0][0]   \n","__________________________________________________________________________________________________\n","activation_3064 (Activation)    (None, 17, 17, 160)  0           batch_normalization_3064[0][0]   \n","__________________________________________________________________________________________________\n","conv2d_3060 (Conv2D)            (None, 17, 17, 160)  179200      activation_3059[0][0]            \n","__________________________________________________________________________________________________\n","conv2d_3065 (Conv2D)            (None, 17, 17, 160)  179200      activation_3064[0][0]            \n","__________________________________________________________________________________________________\n","batch_normalization_3060 (Batch (None, 17, 17, 160)  480         conv2d_3060[0][0]                \n","__________________________________________________________________________________________________\n","batch_normalization_3065 (Batch (None, 17, 17, 160)  480         conv2d_3065[0][0]                \n","__________________________________________________________________________________________________\n","activation_3060 (Activation)    (None, 17, 17, 160)  0           batch_normalization_3060[0][0]   \n","__________________________________________________________________________________________________\n","activation_3065 (Activation)    (None, 17, 17, 160)  0           batch_normalization_3065[0][0]   \n","__________________________________________________________________________________________________\n","average_pooling2d_293 (AverageP (None, 17, 17, 768)  0           mixed5[0][0]                     \n","__________________________________________________________________________________________________\n","conv2d_3058 (Conv2D)            (None, 17, 17, 192)  147456      mixed5[0][0]                     \n","__________________________________________________________________________________________________\n","conv2d_3061 (Conv2D)            (None, 17, 17, 192)  215040      activation_3060[0][0]            \n","__________________________________________________________________________________________________\n","conv2d_3066 (Conv2D)            (None, 17, 17, 192)  215040      activation_3065[0][0]            \n","__________________________________________________________________________________________________\n","conv2d_3067 (Conv2D)            (None, 17, 17, 192)  147456      average_pooling2d_293[0][0]      \n","__________________________________________________________________________________________________\n","batch_normalization_3058 (Batch (None, 17, 17, 192)  576         conv2d_3058[0][0]                \n","__________________________________________________________________________________________________\n","batch_normalization_3061 (Batch (None, 17, 17, 192)  576         conv2d_3061[0][0]                \n","__________________________________________________________________________________________________\n","batch_normalization_3066 (Batch (None, 17, 17, 192)  576         conv2d_3066[0][0]                \n","__________________________________________________________________________________________________\n","batch_normalization_3067 (Batch (None, 17, 17, 192)  576         conv2d_3067[0][0]                \n","__________________________________________________________________________________________________\n","activation_3058 (Activation)    (None, 17, 17, 192)  0           batch_normalization_3058[0][0]   \n","__________________________________________________________________________________________________\n","activation_3061 (Activation)    (None, 17, 17, 192)  0           batch_normalization_3061[0][0]   \n","__________________________________________________________________________________________________\n","activation_3066 (Activation)    (None, 17, 17, 192)  0           batch_normalization_3066[0][0]   \n","__________________________________________________________________________________________________\n","activation_3067 (Activation)    (None, 17, 17, 192)  0           batch_normalization_3067[0][0]   \n","__________________________________________________________________________________________________\n","mixed6 (Concatenate)            (None, 17, 17, 768)  0           activation_3058[0][0]            \n","                                                                 activation_3061[0][0]            \n","                                                                 activation_3066[0][0]            \n","                                                                 activation_3067[0][0]            \n","__________________________________________________________________________________________________\n","conv2d_3072 (Conv2D)            (None, 17, 17, 192)  147456      mixed6[0][0]                     \n","__________________________________________________________________________________________________\n","batch_normalization_3072 (Batch (None, 17, 17, 192)  576         conv2d_3072[0][0]                \n","__________________________________________________________________________________________________\n","activation_3072 (Activation)    (None, 17, 17, 192)  0           batch_normalization_3072[0][0]   \n","__________________________________________________________________________________________________\n","conv2d_3073 (Conv2D)            (None, 17, 17, 192)  258048      activation_3072[0][0]            \n","__________________________________________________________________________________________________\n","batch_normalization_3073 (Batch (None, 17, 17, 192)  576         conv2d_3073[0][0]                \n","__________________________________________________________________________________________________\n","activation_3073 (Activation)    (None, 17, 17, 192)  0           batch_normalization_3073[0][0]   \n","__________________________________________________________________________________________________\n","conv2d_3069 (Conv2D)            (None, 17, 17, 192)  147456      mixed6[0][0]                     \n","__________________________________________________________________________________________________\n","conv2d_3074 (Conv2D)            (None, 17, 17, 192)  258048      activation_3073[0][0]            \n","__________________________________________________________________________________________________\n","batch_normalization_3069 (Batch (None, 17, 17, 192)  576         conv2d_3069[0][0]                \n","__________________________________________________________________________________________________\n","batch_normalization_3074 (Batch (None, 17, 17, 192)  576         conv2d_3074[0][0]                \n","__________________________________________________________________________________________________\n","activation_3069 (Activation)    (None, 17, 17, 192)  0           batch_normalization_3069[0][0]   \n","__________________________________________________________________________________________________\n","activation_3074 (Activation)    (None, 17, 17, 192)  0           batch_normalization_3074[0][0]   \n","__________________________________________________________________________________________________\n","conv2d_3070 (Conv2D)            (None, 17, 17, 192)  258048      activation_3069[0][0]            \n","__________________________________________________________________________________________________\n","conv2d_3075 (Conv2D)            (None, 17, 17, 192)  258048      activation_3074[0][0]            \n","__________________________________________________________________________________________________\n","batch_normalization_3070 (Batch (None, 17, 17, 192)  576         conv2d_3070[0][0]                \n","__________________________________________________________________________________________________\n","batch_normalization_3075 (Batch (None, 17, 17, 192)  576         conv2d_3075[0][0]                \n","__________________________________________________________________________________________________\n","activation_3070 (Activation)    (None, 17, 17, 192)  0           batch_normalization_3070[0][0]   \n","__________________________________________________________________________________________________\n","activation_3075 (Activation)    (None, 17, 17, 192)  0           batch_normalization_3075[0][0]   \n","__________________________________________________________________________________________________\n","average_pooling2d_294 (AverageP (None, 17, 17, 768)  0           mixed6[0][0]                     \n","__________________________________________________________________________________________________\n","conv2d_3068 (Conv2D)            (None, 17, 17, 192)  147456      mixed6[0][0]                     \n","__________________________________________________________________________________________________\n","conv2d_3071 (Conv2D)            (None, 17, 17, 192)  258048      activation_3070[0][0]            \n","__________________________________________________________________________________________________\n","conv2d_3076 (Conv2D)            (None, 17, 17, 192)  258048      activation_3075[0][0]            \n","__________________________________________________________________________________________________\n","conv2d_3077 (Conv2D)            (None, 17, 17, 192)  147456      average_pooling2d_294[0][0]      \n","__________________________________________________________________________________________________\n","batch_normalization_3068 (Batch (None, 17, 17, 192)  576         conv2d_3068[0][0]                \n","__________________________________________________________________________________________________\n","batch_normalization_3071 (Batch (None, 17, 17, 192)  576         conv2d_3071[0][0]                \n","__________________________________________________________________________________________________\n","batch_normalization_3076 (Batch (None, 17, 17, 192)  576         conv2d_3076[0][0]                \n","__________________________________________________________________________________________________\n","batch_normalization_3077 (Batch (None, 17, 17, 192)  576         conv2d_3077[0][0]                \n","__________________________________________________________________________________________________\n","activation_3068 (Activation)    (None, 17, 17, 192)  0           batch_normalization_3068[0][0]   \n","__________________________________________________________________________________________________\n","activation_3071 (Activation)    (None, 17, 17, 192)  0           batch_normalization_3071[0][0]   \n","__________________________________________________________________________________________________\n","activation_3076 (Activation)    (None, 17, 17, 192)  0           batch_normalization_3076[0][0]   \n","__________________________________________________________________________________________________\n","activation_3077 (Activation)    (None, 17, 17, 192)  0           batch_normalization_3077[0][0]   \n","__________________________________________________________________________________________________\n","mixed7 (Concatenate)            (None, 17, 17, 768)  0           activation_3068[0][0]            \n","                                                                 activation_3071[0][0]            \n","                                                                 activation_3076[0][0]            \n","                                                                 activation_3077[0][0]            \n","__________________________________________________________________________________________________\n","conv2d_3080 (Conv2D)            (None, 17, 17, 192)  147456      mixed7[0][0]                     \n","__________________________________________________________________________________________________\n","batch_normalization_3080 (Batch (None, 17, 17, 192)  576         conv2d_3080[0][0]                \n","__________________________________________________________________________________________________\n","activation_3080 (Activation)    (None, 17, 17, 192)  0           batch_normalization_3080[0][0]   \n","__________________________________________________________________________________________________\n","conv2d_3081 (Conv2D)            (None, 17, 17, 192)  258048      activation_3080[0][0]            \n","__________________________________________________________________________________________________\n","batch_normalization_3081 (Batch (None, 17, 17, 192)  576         conv2d_3081[0][0]                \n","__________________________________________________________________________________________________\n","activation_3081 (Activation)    (None, 17, 17, 192)  0           batch_normalization_3081[0][0]   \n","__________________________________________________________________________________________________\n","conv2d_3078 (Conv2D)            (None, 17, 17, 192)  147456      mixed7[0][0]                     \n","__________________________________________________________________________________________________\n","conv2d_3082 (Conv2D)            (None, 17, 17, 192)  258048      activation_3081[0][0]            \n","__________________________________________________________________________________________________\n","batch_normalization_3078 (Batch (None, 17, 17, 192)  576         conv2d_3078[0][0]                \n","__________________________________________________________________________________________________\n","batch_normalization_3082 (Batch (None, 17, 17, 192)  576         conv2d_3082[0][0]                \n","__________________________________________________________________________________________________\n","activation_3078 (Activation)    (None, 17, 17, 192)  0           batch_normalization_3078[0][0]   \n","__________________________________________________________________________________________________\n","activation_3082 (Activation)    (None, 17, 17, 192)  0           batch_normalization_3082[0][0]   \n","__________________________________________________________________________________________________\n","conv2d_3079 (Conv2D)            (None, 8, 8, 320)    552960      activation_3078[0][0]            \n","__________________________________________________________________________________________________\n","conv2d_3083 (Conv2D)            (None, 8, 8, 192)    331776      activation_3082[0][0]            \n","__________________________________________________________________________________________________\n","batch_normalization_3079 (Batch (None, 8, 8, 320)    960         conv2d_3079[0][0]                \n","__________________________________________________________________________________________________\n","batch_normalization_3083 (Batch (None, 8, 8, 192)    576         conv2d_3083[0][0]                \n","__________________________________________________________________________________________________\n","activation_3079 (Activation)    (None, 8, 8, 320)    0           batch_normalization_3079[0][0]   \n","__________________________________________________________________________________________________\n","activation_3083 (Activation)    (None, 8, 8, 192)    0           batch_normalization_3083[0][0]   \n","__________________________________________________________________________________________________\n","max_pooling2d_131 (MaxPooling2D (None, 8, 8, 768)    0           mixed7[0][0]                     \n","__________________________________________________________________________________________________\n","mixed8 (Concatenate)            (None, 8, 8, 1280)   0           activation_3079[0][0]            \n","                                                                 activation_3083[0][0]            \n","                                                                 max_pooling2d_131[0][0]          \n","__________________________________________________________________________________________________\n","conv2d_3088 (Conv2D)            (None, 8, 8, 448)    573440      mixed8[0][0]                     \n","__________________________________________________________________________________________________\n","batch_normalization_3088 (Batch (None, 8, 8, 448)    1344        conv2d_3088[0][0]                \n","__________________________________________________________________________________________________\n","activation_3088 (Activation)    (None, 8, 8, 448)    0           batch_normalization_3088[0][0]   \n","__________________________________________________________________________________________________\n","conv2d_3085 (Conv2D)            (None, 8, 8, 384)    491520      mixed8[0][0]                     \n","__________________________________________________________________________________________________\n","conv2d_3089 (Conv2D)            (None, 8, 8, 384)    1548288     activation_3088[0][0]            \n","__________________________________________________________________________________________________\n","batch_normalization_3085 (Batch (None, 8, 8, 384)    1152        conv2d_3085[0][0]                \n","__________________________________________________________________________________________________\n","batch_normalization_3089 (Batch (None, 8, 8, 384)    1152        conv2d_3089[0][0]                \n","__________________________________________________________________________________________________\n","activation_3085 (Activation)    (None, 8, 8, 384)    0           batch_normalization_3085[0][0]   \n","__________________________________________________________________________________________________\n","activation_3089 (Activation)    (None, 8, 8, 384)    0           batch_normalization_3089[0][0]   \n","__________________________________________________________________________________________________\n","conv2d_3086 (Conv2D)            (None, 8, 8, 384)    442368      activation_3085[0][0]            \n","__________________________________________________________________________________________________\n","conv2d_3087 (Conv2D)            (None, 8, 8, 384)    442368      activation_3085[0][0]            \n","__________________________________________________________________________________________________\n","conv2d_3090 (Conv2D)            (None, 8, 8, 384)    442368      activation_3089[0][0]            \n","__________________________________________________________________________________________________\n","conv2d_3091 (Conv2D)            (None, 8, 8, 384)    442368      activation_3089[0][0]            \n","__________________________________________________________________________________________________\n","average_pooling2d_295 (AverageP (None, 8, 8, 1280)   0           mixed8[0][0]                     \n","__________________________________________________________________________________________________\n","conv2d_3084 (Conv2D)            (None, 8, 8, 320)    409600      mixed8[0][0]                     \n","__________________________________________________________________________________________________\n","batch_normalization_3086 (Batch (None, 8, 8, 384)    1152        conv2d_3086[0][0]                \n","__________________________________________________________________________________________________\n","batch_normalization_3087 (Batch (None, 8, 8, 384)    1152        conv2d_3087[0][0]                \n","__________________________________________________________________________________________________\n","batch_normalization_3090 (Batch (None, 8, 8, 384)    1152        conv2d_3090[0][0]                \n","__________________________________________________________________________________________________\n","batch_normalization_3091 (Batch (None, 8, 8, 384)    1152        conv2d_3091[0][0]                \n","__________________________________________________________________________________________________\n","conv2d_3092 (Conv2D)            (None, 8, 8, 192)    245760      average_pooling2d_295[0][0]      \n","__________________________________________________________________________________________________\n","batch_normalization_3084 (Batch (None, 8, 8, 320)    960         conv2d_3084[0][0]                \n","__________________________________________________________________________________________________\n","activation_3086 (Activation)    (None, 8, 8, 384)    0           batch_normalization_3086[0][0]   \n","__________________________________________________________________________________________________\n","activation_3087 (Activation)    (None, 8, 8, 384)    0           batch_normalization_3087[0][0]   \n","__________________________________________________________________________________________________\n","activation_3090 (Activation)    (None, 8, 8, 384)    0           batch_normalization_3090[0][0]   \n","__________________________________________________________________________________________________\n","activation_3091 (Activation)    (None, 8, 8, 384)    0           batch_normalization_3091[0][0]   \n","__________________________________________________________________________________________________\n","batch_normalization_3092 (Batch (None, 8, 8, 192)    576         conv2d_3092[0][0]                \n","__________________________________________________________________________________________________\n","activation_3084 (Activation)    (None, 8, 8, 320)    0           batch_normalization_3084[0][0]   \n","__________________________________________________________________________________________________\n","mixed9_0 (Concatenate)          (None, 8, 8, 768)    0           activation_3086[0][0]            \n","                                                                 activation_3087[0][0]            \n","__________________________________________________________________________________________________\n","concatenate_64 (Concatenate)    (None, 8, 8, 768)    0           activation_3090[0][0]            \n","                                                                 activation_3091[0][0]            \n","__________________________________________________________________________________________________\n","activation_3092 (Activation)    (None, 8, 8, 192)    0           batch_normalization_3092[0][0]   \n","__________________________________________________________________________________________________\n","mixed9 (Concatenate)            (None, 8, 8, 2048)   0           activation_3084[0][0]            \n","                                                                 mixed9_0[0][0]                   \n","                                                                 concatenate_64[0][0]             \n","                                                                 activation_3092[0][0]            \n","__________________________________________________________________________________________________\n","conv2d_3097 (Conv2D)            (None, 8, 8, 448)    917504      mixed9[0][0]                     \n","__________________________________________________________________________________________________\n","batch_normalization_3097 (Batch (None, 8, 8, 448)    1344        conv2d_3097[0][0]                \n","__________________________________________________________________________________________________\n","activation_3097 (Activation)    (None, 8, 8, 448)    0           batch_normalization_3097[0][0]   \n","__________________________________________________________________________________________________\n","conv2d_3094 (Conv2D)            (None, 8, 8, 384)    786432      mixed9[0][0]                     \n","__________________________________________________________________________________________________\n","conv2d_3098 (Conv2D)            (None, 8, 8, 384)    1548288     activation_3097[0][0]            \n","__________________________________________________________________________________________________\n","batch_normalization_3094 (Batch (None, 8, 8, 384)    1152        conv2d_3094[0][0]                \n","__________________________________________________________________________________________________\n","batch_normalization_3098 (Batch (None, 8, 8, 384)    1152        conv2d_3098[0][0]                \n","__________________________________________________________________________________________________\n","activation_3094 (Activation)    (None, 8, 8, 384)    0           batch_normalization_3094[0][0]   \n","__________________________________________________________________________________________________\n","activation_3098 (Activation)    (None, 8, 8, 384)    0           batch_normalization_3098[0][0]   \n","__________________________________________________________________________________________________\n","conv2d_3095 (Conv2D)            (None, 8, 8, 384)    442368      activation_3094[0][0]            \n","__________________________________________________________________________________________________\n","conv2d_3096 (Conv2D)            (None, 8, 8, 384)    442368      activation_3094[0][0]            \n","__________________________________________________________________________________________________\n","conv2d_3099 (Conv2D)            (None, 8, 8, 384)    442368      activation_3098[0][0]            \n","__________________________________________________________________________________________________\n","conv2d_3100 (Conv2D)            (None, 8, 8, 384)    442368      activation_3098[0][0]            \n","__________________________________________________________________________________________________\n","average_pooling2d_296 (AverageP (None, 8, 8, 2048)   0           mixed9[0][0]                     \n","__________________________________________________________________________________________________\n","conv2d_3093 (Conv2D)            (None, 8, 8, 320)    655360      mixed9[0][0]                     \n","__________________________________________________________________________________________________\n","batch_normalization_3095 (Batch (None, 8, 8, 384)    1152        conv2d_3095[0][0]                \n","__________________________________________________________________________________________________\n","batch_normalization_3096 (Batch (None, 8, 8, 384)    1152        conv2d_3096[0][0]                \n","__________________________________________________________________________________________________\n","batch_normalization_3099 (Batch (None, 8, 8, 384)    1152        conv2d_3099[0][0]                \n","__________________________________________________________________________________________________\n","batch_normalization_3100 (Batch (None, 8, 8, 384)    1152        conv2d_3100[0][0]                \n","__________________________________________________________________________________________________\n","conv2d_3101 (Conv2D)            (None, 8, 8, 192)    393216      average_pooling2d_296[0][0]      \n","__________________________________________________________________________________________________\n","batch_normalization_3093 (Batch (None, 8, 8, 320)    960         conv2d_3093[0][0]                \n","__________________________________________________________________________________________________\n","activation_3095 (Activation)    (None, 8, 8, 384)    0           batch_normalization_3095[0][0]   \n","__________________________________________________________________________________________________\n","activation_3096 (Activation)    (None, 8, 8, 384)    0           batch_normalization_3096[0][0]   \n","__________________________________________________________________________________________________\n","activation_3099 (Activation)    (None, 8, 8, 384)    0           batch_normalization_3099[0][0]   \n","__________________________________________________________________________________________________\n","activation_3100 (Activation)    (None, 8, 8, 384)    0           batch_normalization_3100[0][0]   \n","__________________________________________________________________________________________________\n","batch_normalization_3101 (Batch (None, 8, 8, 192)    576         conv2d_3101[0][0]                \n","__________________________________________________________________________________________________\n","activation_3093 (Activation)    (None, 8, 8, 320)    0           batch_normalization_3093[0][0]   \n","__________________________________________________________________________________________________\n","mixed9_1 (Concatenate)          (None, 8, 8, 768)    0           activation_3095[0][0]            \n","                                                                 activation_3096[0][0]            \n","__________________________________________________________________________________________________\n","concatenate_65 (Concatenate)    (None, 8, 8, 768)    0           activation_3099[0][0]            \n","                                                                 activation_3100[0][0]            \n","__________________________________________________________________________________________________\n","activation_3101 (Activation)    (None, 8, 8, 192)    0           batch_normalization_3101[0][0]   \n","__________________________________________________________________________________________________\n","mixed10 (Concatenate)           (None, 8, 8, 2048)   0           activation_3093[0][0]            \n","                                                                 mixed9_1[0][0]                   \n","                                                                 concatenate_65[0][0]             \n","                                                                 activation_3101[0][0]            \n","__________________________________________________________________________________________________\n","avg_pool (GlobalAveragePooling2 (None, 2048)         0           mixed10[0][0]                    \n","__________________________________________________________________________________________________\n","predictions (Dense)             (None, 1000)         2049000     avg_pool[0][0]                   \n","==================================================================================================\n","Total params: 23,851,784\n","Trainable params: 23,817,352\n","Non-trainable params: 34,432\n","__________________________________________________________________________________________________\n","0: input_33\n","1: conv2d_3008\n","2: batch_normalizatio
…
